Model: "model"
_________________________________________________________________
Layer (type)                 Output Shape              Param #   
=================================================================
input_1 (InputLayer)         [(None, 32, 32, 3)]       0         
_________________________________________________________________
conv2d (Conv2D)              (None, 32, 32, 16)        448       
_________________________________________________________________
max_pooling2d (MaxPooling2D) (None, 16, 16, 16)        0         
_________________________________________________________________
conv2d_1 (Conv2D)            (None, 16, 16, 8)         1160      
_________________________________________________________________
max_pooling2d_1 (MaxPooling2 (None, 8, 8, 8)           0         
_________________________________________________________________
conv2d_2 (Conv2D)            (None, 8, 8, 8)           584       
_________________________________________________________________
max_pooling2d_2 (MaxPooling2 (None, 4, 4, 8)           0         
_________________________________________________________________
conv2d_3 (Conv2D)            (None, 4, 4, 8)           584       
_________________________________________________________________
up_sampling2d (UpSampling2D) (None, 8, 8, 8)           0         
_________________________________________________________________
conv2d_4 (Conv2D)            (None, 8, 8, 8)           584       
_________________________________________________________________
up_sampling2d_1 (UpSampling2 (None, 16, 16, 8)         0         
_________________________________________________________________
conv2d_5 (Conv2D)            (None, 16, 16, 16)        1168      
_________________________________________________________________
up_sampling2d_2 (UpSampling2 (None, 32, 32, 16)        0         
_________________________________________________________________
conv2d_6 (Conv2D)            (None, 32, 32, 3)         435       
=================================================================
Total params: 4,963
Trainable params: 4,963
Non-trainable params: 0
_________________________________________________________________
Epoch 1/20
 1/40 [..............................] - ETA: 50s - loss: 0.0646 2/40 [>.............................] - ETA: 12s -
…
