Model: "model"
_________________________________________________________________
Layer (type)                 Output Shape              Param #   
=================================================================
input_1 (InputLayer)         [(None, 28, 28, 1)]       0         
_________________________________________________________________
conv2d (Conv2D)              (None, 28, 28, 16)        160       
_________________________________________________________________
max_pooling2d (MaxPooling2D) (None, 14, 14, 16)        0         
_________________________________________________________________
conv2d_1 (Conv2D)            (None, 14, 14, 8)         1160      
_________________________________________________________________
max_pooling2d_1 (MaxPooling2 (None, 7, 7, 8)           0         
_________________________________________________________________
conv2d_2 (Conv2D)            (None, 7, 7, 8)           584       
_________________________________________________________________
max_pooling2d_2 (MaxPooling2 (None, 4, 4, 8)           0         
_________________________________________________________________
conv2d_3 (Conv2D)            (None, 4, 4, 8)           584       
_________________________________________________________________
up_sampling2d (UpSampling2D) (None, 8, 8, 8)           0         
_________________________________________________________________
conv2d_4 (Conv2D)            (None, 8, 8, 8)           584       
_________________________________________________________________
up_sampling2d_1 (UpSampling2 (None, 16, 16, 8)         0         
_________________________________________________________________
conv2d_5 (Conv2D)            (None, 14, 14, 16)        1168      
_________________________________________________________________
up_sampling2d_2 (UpSampling2 (None, 28, 28, 16)        0         
_________________________________________________________________
conv2d_6 (Conv2D)            (None, 28, 28, 1)         145       
=================================================================
Total params: 4,385
Trainable params: 4,385
Non-trainable params: 0
_________________________________________________________________
Epoch 1/20
 1/48 [..............................] - ETA: 43s - loss: 0.2322 2/48 [>.............................] - ETA: 7s - 
…
